HTML/models/B2 - Carpentry Works for Main Counter/model.tflite (tflite, 13180 bytes, 5 tensors)

sequential_1/dense_4/BiasAdd/ReadVariableOp f4 [50]
0	0x3c22c781	0.009935261
1	0xbbc8291d	-0.0061084167
2	0x3c67c66f	0.014146431
3	0xbc1b79e5	-0.009489511
4	0xbbe21644	-0.006899627
5	0x3bc21cfb	0.005923865
6	0x3d029c67	0.03188744
7	0xb65c35a0	-3.2813768e-06
8	0x3b88a15e	0.004169627
9	0xbc0a175f	-0.008428424
10	0x3ba0f528	0.0049120374
11	0xbc9ac05f	-0.018890558
12	0x3c6cc055	0.014450152
13	0x3c64d937	0.013967804
14	0x3826eb62	3.97967e-05
15	0x3b85b3d5	0.0040802755
16	0x3c4ea592	0.012612717
17	0x3b291460	0.0025799498
18	0x3bced2d2	0.006311753
19	0xbbe282e8	-0.006912578
20	0x3c02eb4e	0.007990671
21	0xbca73716	-0.02041201
22	0xbc444f66	-0.011981821
23	0xbc97590d	-0.01847508
24	0x3c169d95	0.009192844
25	0xbbbc2141	-0.005741269
26	0xbd045791	-0.032310072
27	0x3c34d935	0.011038114
28	0xbc1e0d8a	-0.009646783
29	0xbc1583b7	-0.009125642
30	0xbc562d65	-0.013072346
31	0xbc662d9b	-0.014048959
32	0xbbee3274	-0.007269198
33	0xbc34f576	-0.011044851
34	0xbc150098	-0.00909438
35	0x3c96d8fa	0.01841401
36	0x3b3e9751	0.002908189
37	0xbc50cd90	-0.012744322
38	0xbc579d1b	-0.013160015
39	0x3bd49b9f	0.006488278
40	0x3c3d6729	0.01156024
41	0x3b8d049a	0.004303527
42	0x3c0671db	0.008205856
43	0x3c7a7129	0.015285769
44	0x3bca8ef0	0.0061815903
45	0x3c6ecf4c	0.014575791
46	0x3bc7e115	0.00609983
47	0x3c124de4	0.008929703
48	0xbcbb79a4	-0.022885151
49	0x3b388105	0.0028153074

sequential_1/dense_3/BiasAdd/ReadVariableOp f4 [50]
0	0xbb96bbb8	-0.0046000145
1	0xbb566d8d	-0.0032719106
2	0xbcf28300	-0.029603481
3	0xbc1931bd	-0.009350237
4	0x3c8df6ab	0.017329535
5	0x3c2835ee	0.010266764
6	0x00000000	0.0
7	0x3bc762cc	0.0060847756
8	0x00000000	0.0
9	0xbc33a35f	-0.010964244
10	0xbb6679f7	-0.0035167912
11	0x3a3a8519	0.000711517
12	0xbbfcb583	-0.0077120676
13	0x3b8da972	0.004323178
14	0x00000000	0.0
15	0xbc9546cc	-0.018222235
16	0x00000000	0.0
17	0x00000000	0.0
18	0x00000000	0.0
19	0xbcd4fc13	-0.025999105
20	0x3cb1eaef	0.02171847
21	0x00000000	0.0
22	0x00000000	0.0
23	0xbbf1331c	-0.007360829
24	0xbc801c24	-0.015638418
25	0x00000000	0.0
26	0x00000000	0.0
27	0x00000000	0.0
28	0x00000000	0.0
29	0xbb86d245	-0.0041144216
30	0x00000000	0.0
31	0x00000000	0.0
32	0x3b8bdbdb	0.004268152
33	0x00000000	0.0
34	0x3c30d2c6	0.01079244
35	0x00000000	0.0
36	0x00000000	0.0
37	0x00000000	0.0
38	0x00000000	0.0
39	0xba9e9d34	-0.0012101294
40	0x00000000	0.0
41	0xb9dd5c84	-0.00042221334
42	0x00000000	0.0
43	0xbc141566	-0.009038305
44	0x00000000	0.0
45	0x3bd49195	0.0064870813
46	0x00000000	0.0
47	0x3cdf4e2a	0.027258951
48	0x00000000	0.0
49	0x3d73b21c	0.05949603

sequential_1/dense_3/MatMul f4 [50, 3]
0	0xbc6ff5c5	-0.014645998
1	0x3e907074	0.28210795
2	0x3e9fb9e9	0.31196526
3	0x3ced4366	0.028962802
4	0x3dd96a4f	0.1061598
5	0xba83ef1c	-0.0010065767
6	0xbe1791da	-0.14801732
7	0x3dd79c45	0.10527853
8	0x3e903b93	0.28170452
9	0xbe69eb82	-0.22843745
10	0x3e388635	0.18019946
11	0x3d09d056	0.03364595
12	0x3e83dc4c	0.2575401
13	0xbea63dad	-0.3246893
14	0x3e28ef00	0.16497421
15	0xbe500d89	-0.20317663
16	0x3e87447b	0.26419434
17	0x3da7dfef	0.08197009
18	0xbeaaa74f	-0.3333077
19	0x3c515080	0.01277554
20	0xbe37d5b1	-0.1795261
21	0xbead1ed2	-0.33812577
22	0x3e9db192	0.30799538
23	0xbd65610b	-0.05600075
24	0xbe6bb697	-0.23018871
25	0x3daf2ec4	0.08553842
26	0xbe755ccc	-0.2396118
27	0xbea523d5	-0.322539
28	0xbe5c461e	-0.21511123
29	0x3e2a0353	0.1660283
30	0x3e2e9b09	0.17051329
31	0xbe26ca3e	-0.16288087
32	0x3e80775e	0.2509107
33	0xbe9e6d6b	-0.30942854
34	0x3e9da0c9	0.30786732
35	0x3de05f17	0.10955637
36	0x3e30ba46	0.17258558
37	0x3e129d22	0.14317754
38	0xbe16cf1b	-0.14727442
39	0xbe6307fd	-0.22171016
40	0x3cfef321	0.031121792
41	0x3e914ad3	0.283774
42	0xbe08c654	-0.13356906
43	0x3e18a05a	0.1490492
44	0xbe92f311	-0.2870107
45	0x3ea2e386	0.31814212
46	0x3e29eece	0.16595003
47	0x3b979051	0.004625358
48	0xbe55f440	-0.20893955
49	0xbe2a22bc	-0.16614813
50	0xbddc37c6	-0.107528254
51	0x3e3fe9fa	0.18741599
52	0xbe84e9cc	-0.25959623
53	0x3bb2ad80	0.0054528117
54	0xbe6ff9d3	-0.23435144
55	0xbe2acae7	-0.16678964
56	0xbce42dc0	-0.027853847
57	0x3d1f6b2e	0.038920574
58	0xbeaa26fc	-0.33232868
59	0x3e2b374f	0.16720317
60	0x3e0ef11d	0.13959165
61	0x3eb872d1	0.36025098
62	0xbd2f28c1	-0.042763475
63	0xbe3f2048	-0.18664658
64	0x3c537ca0	0.012908131
65	0xbd5c3378	-0.053760022
66	0xbd977f60	-0.07397342
67	0xbdbdcb48	-0.092672884
68	0xbe6bfc68	-0.23045504
69	0xbe857d10	-0.26071978
70	0x3c932f5a	0.017966915
71	0x3c8766f3	0.016528582
72	0x3c5fefd5	0.01366802
73	0x3e7ab4e2	0.24483064
74	0xbe26e20c	-0.16297168
75	0xbe60f3c2	-0.21967986
76	0x3e6ab012	0.22918728
77	0xbe093193	-0.13397817
78	0x3e3aad1a	0.18230096
79	0x3e9196bb	0.2843531
80	0xbe82a1ce	-0.25514072
81	0x3e3a2666	0.1817871
82	0x3d4d61f0	0.05014223
83	0xbe8882a8	-0.26662183
84	0x3d465fc0	0.048431158
85	0xbe93bd58	-0.28855395
86	0x3d018ef8	0.031630486
87	0x3e9a0adf	0.3008642
88	0xbd370179	-0.04467914
89	0x3d2b3582	0.041799076
90	0xbea6928d	-0.32533684
91	0x3d7dae38	0.061933726
92	0xbd446128	-0.047944218
93	0xbea62786	-0.3245203
94	0x3dce73a8	0.100806534
95	0xbe9c70bc	-0.3055476
96	0xba94b5d0	-0.0011345688
97	0xbe10f858	-0.14157236
98	0x3daf22b3	0.0855154
99	0xbe632141	-0.22180654
100	0x3cebc3d0	0.028779894
101	0xbe234824	-0.15945488
102	0x3e0e4f4f	0.13897441
103	0x3e57220f	0.21009086
104	0x3e906a28	0.2820599
105	0xbe7d41e4	-0.24732167
106	0xbe20dbff	-0.15708922
107	0xbe8569b5	-0.2605721
108	0xbea23aaa	-0.31685382
109	0x3dcdff54	0.100584656
110	0xbe2cb398	-0.16865385
111	0x3e857ab3	0.26070175
112	0xbe0a7526	-0.13521251
113	0xbe7ef70a	-0.24898925
114	0xbe99ec7d	-0.3006324
115	0x3e24b032	0.16082838
116	0xbe9ff774	-0.3124348
117	0xbe7a4271	-0.24439408
118	0x3e83e1e8	0.2575829
119	0x3ea2f11d	0.3182458
120	0x3e86faaf	0.2636313
121	0xbe8f5d78	-0.28000998
122	0xbcd8fff0	-0.026489228
123	0x3c5232db	0.012829508
124	0xbea43225	-0.32069507
125	0x3e0d20cb	0.13782041
126	0x3e2c5256	0.16828284
127	0x3e1aa584	0.15102202
128	0xbe87422a	-0.26417667
129	0xbd2f0754	-0.042731598
130	0xbe84b023	-0.25915632
131	0x3e356381	0.17713739
132	0xbe86d86c	-0.26336992
133	0xbe96e803	-0.29473886
134	0xbe7e4c19	-0.24833716
135	0x3e7cdd5d	0.24693818
136	0xbe3f772f	-0.18697809
137	0x3e3c83e0	0.18409681
138	0x3ea0a587	0.31376287
139	0xbe9d3a4e	-0.30708545
140	0x3caf1010	0.021369964
141	0x3e1fc78f	0.1560347
142	0x3e3e6a36	0.18595204
143	0x3e914acc	0.28377378
144	0xbd6f7428	-0.058460385
145	0x3cbcc1e0	0.023041666
146	0xbd04c630	-0.03241557
147	0xbd93ca05	-0.072162665
148	0xbe83c4cb	-0.2573608
149	0x3e06c0d4	0.13159496

sequential_1/dense_4/MatMul f4 [50, 50]
0	0x3e76dffa	0.24108878
1	0xbdb6e377	-0.08930104
2	0x3e53a862	0.20669702
3	0xbe52b41f	-0.20576523
4	0xbd3d4157	-0.04620489
5	0xbd920ccc	-0.07131347
6	0x3d8577a2	0.06516959
7	0xbca76f43	-0.020438796
8	0x3e0da14d	0.13831063
9	0x3db85fe6	0.09002666
10	0x3deaa9cb	0.11458167
11	0x3dee753d	0.11643455
12	0xbe3e7b70	-0.18601775
13	0x3dfff162	0.12497212
14	0x3b565f40	0.0032710582
15	0x3d9e9ec8	0.07745129
16	0x3c3f2110	0.011665598
17	0xbe0f73be	-0.14008996
18	0x3e54e10f	0.20788978
19	0x3e4e7dd3	0.20165186
20	0x3e20b05f	0.1569228
21	0x3e42ac53	0.19011049
22	0xbcb66db8	-0.022269115
23	0x3de34ee1	0.11099029
24	0x3e26bb3f	0.16282366
25	0xbe2a4c1c	-0.16630596
26	0xbe2a3525	-0.16621836
27	0x3d800512	0.06250967
28	0x3d0bffa4	0.034179345
29	0x3c86f0f4	0.016472317
30	0xbd2a0ed8	-0.041518062
31	0xbe6641f6	-0.224861
32	0xbdc46343	-0.09589245
33	0x3e639501	0.22224809
34	0xbe50639f	-0.20350502
35	0xbd629be0	-0.055324435
36	0xbc7d8920	-0.015474588
37	0x3d98d28a	0.07462032
38	0xbe2cc311	-0.16871287
39	0xbe5a0604	-0.21291357
40	0x3e1ef739	0.15523995
41	0xbda35032	-0.079742804
42	0x3d2e0354	0.042483643
43	0xbe64fefc	-0.22362894
44	0xbe6619f5	-0.2247084
45	0x3e10cb2e	0.14140007
46	0xbe493016	-0.1964725
47	0x3cccb837	0.024990184
48	0x3b1e5740	0.0024160892
49	0x3e9b1cf9	0.30295542
50	0xbe6a948f	-0.22908233
51	0x3d5017ee	0.05080407
52	0x3e38ec33	0.18058853
53	0xbd49617f	-0.049165245
54	0xbe23ccbb	-0.15996067
55	0xbe1f68d4	-0.15567333
56	0xbd0ed7f0	-0.034873903
57	0x3deb3158	0.11484021
58	0xbde72c88	-0.112877905
59	0xbd961ba2	-0.07329489
60	0x3d988d07	0.07448774
61	0xbe32fa84	-0.17478377
62	0x3e439c9b	0.19102709
63	0xbe5cc4e9	-0.2155949
64	0xbd741550	-0.059590638
65	0x3d2179e8	0.0394229
66	0x3d90cd82	0.070704475
67	0xbcbe9e20	-0.02326876
68	0x3e2f495d	0.1711783
69	0xbe838780	-0.25689316
70	0xbdbf4a90	-0.093403935
71	0x3e3a4437	0.18190084
72	0x3e10a8e7	0.14126931
73	0x3da1a14f	0.07892095
74	0x3dd715f4	0.10502234
75	0x3d60fe64	0.054930106
76	0xbe4178fd	-0.1889381
77	0x3e3066fd	0.17226787
78	0xbd5ffefc	-0.05468653
79	0x3e51be33	0.20482711
80	0xbe44cd9c	-0.19219059
81	0x3dbb0552	0.09131874
82	0x3de29751	0.110640176
83	0xbe696d3b	-0.22795574
84	0x3cc9f43c	0.024652593
85	0xbe16aec7	-0.1471511
86	0xbe6338d4	-0.22189647
87	0xbe021e00	-0.12706757
88	0xbe245f92	-0.16052082
89	0x3d8c6066	0.06854324
90	0xbe3606ec	-0.17776078
91	0xbe8a7970	-0.27045774
92	0x3d90ce7e	0.07070635
93	0xbce21176	-0.027596217
94	0xbdf7683e	-0.120804295
95	0x3e42616c	0.18982476
96	0x3e608561	0.2192588
97	0xbe0f0f3d	-0.13970657
98	0xbce1f028	-0.027580336
99	0x3e057189	0.13031591
100	0x3e0873fa	0.13325492
101	0xbe37fc37	-0.17967306
102	0x3e37fb95	0.17967065
103	0xbd2be629	-0.041967545
104	0xbe055d78	-0.13023937
105	0xbd63c60a	-0.055608787
106	0xbe6ecd24	-0.23320442
107	0x3e3e377b	0.18575852
108	0xbe6fbf3a	-0.23412791
109	0x3e036efb	0.12835304
110	0xbe17e0f4	-0.14831907
111	0xbdd0b6d0	-0.10191119
112	0xbd89550d	-0.06705675
113	0xbd085c43	-0.033291113
114	0x3d2f0c5c	0.042736396
115	0xbdd2cfbe	-0.1029353
116	0xbe16eaa7	-0.1473795
117	0x3cf3a5e8	0.029742196
118	0xbe2b1ac1	-0.16709425
119	0x3d41f485	0.047352333
120	0x3d9a4150	0.075319886
121	0xbe31e1e2	-0.17371324
122	0x3dd816e2	0.105512396
123	0xbda8a25c	-0.082340926
124	0x3dd940c9	0.1060806
125	0x3cd49a38	0.025952443
126	0xbcd841a8	-0.026398495
127	0x3e1a405d	0.15063615
128	0xbdfb9d21	-0.12285829
129	0xbe5f295b	-0.2179312
130	0xbe5e1091	-0.21686007
131	0xbd71f47c	-0.05907105
132	0xbdc1784c	-0.09446773
133	0xbc27f330	-0.0102508515
134	0x3e1e7acd	0.15476532
135	0x3c929a58	0.017895862
136	0x3e31173f	0.17294024
137	0xbd0334d0	-0.032032788
138	0x3d7f8d74	0.06239076
139	0xbd267af6	-0.04064461
140	0xbe5c14da	-0.21492329
141	0x3d161beb	0.03664772
142	0x3e6e5f5f	0.23278569
143	0xbdb69b89	-0.08916385
144	0x3e781369	0.24226154
145	0x3e8496ba	0.25896245
146	0xbe6ea81f	-0.2330632
147	0x3dd9c215	0.10632721
148	0xbd87e520	-0.06635499
149	0xbdae80d7	-0.08520668
150	0x3e599955	0.21249898
151	0xbdff3259	-0.12460775
152	0x3e55a10a	0.20862213
153	0x3e37c4b4	0.1794613
154	0xbce0af76	-0.027427416
155	0x3dfc78f7	0.1232776
156	0xbdc55036	-0.0963444
157	0xbd5d90f1	-0.054093305
158	0x3e6e5577	0.2327479
159	0x3e6b3b9e	0.22971961
160	0x3e365ff7	0.17810045
161	0xbb16967c	-0.002297788
162	0xbd5563b2	-0.05209703
163	0xbc1cadf4	-0.009562958
164	0x3dc6e346	0.09711318
165	0xbd5c00d3	-0.053711724
166	0x3d9989fa	0.0749702
167	0xbde12bc0	-0.10994673
168	0xbe720a85	-0.23636825
169	0xbc69e460	-0.01427564
170	0xbe4469cf	-0.19180988
171	0x3dc94df6	0.09829323
172	0xbccdee28	-0.025137976
173	0xbcc97a99	-0.024594592
174	0xbe21669d	-0.157618
175	0xbe2e2bd5	-0.17008908
176	0xbd8050ca	-0.06265409
177	0xbdb6731e	-0.089086756
178	0x3e5fcbc1	0.2185507
179	0xbdbdeb04	-0.09273341
180	0xbe76c585	-0.24098785
181	0x3cd3e8b8	0.025867805
182	0x3e5c745b	0.21528761
183	0x3dfb7b92	0.122794285
184	0x3d2e6514	0.042576864
185	0xbe6da00d	-0.23205586
186	0x3ce73368	0.028222755
187	0x3e127459	0.14302196
188	0xbe0f98b8	-0.14023101
189	0x3c5a29ac	0.013315599
190	0x3d78c8ec	0.06073849
191	0x3e618608	0.22023785
192	0xbe297bf3	-0.16551189
193	0x3e354f5e	0.17706057
194	0xbdb27228	-0.0871318
195	0xbdf783f6	-0.120857164
196	0xbd9f36fc	-0.07774159
197	0x3da9faf9	0.08299822
198	0x3d30298c	0.043008372
199	0xbe0a8aec	-0.13529557
200	0xbe07eaa2	-0.13273099
201	0x3bc2c242	0.0059435675
202	0xbd87442b	-0.06604799
203	0x3e440d43	0.19145684
204	0xbe2ff9ca	-0.1718513
205	0xbe69cda6	-0.22832355
206	0xbda71ca4	-0.0815976
207	0xbd974081	-0.0738535
208	0xbdabc358	-0.08386868
209	0xbd4dee7f	-0.050276276
210	0xbd9acce9	-0.07558615
211	0xbe2403ba	-0.16017047
212	0x3bb8eb51	0.0056432863
213	0xbe1cb980	-0.15305138
214	0xbd8c7e60	-0.068600416
215	0x3e4eb0fa	0.20184699
216	0xbe0746cf	-0.13210605
217	0xbe6a6de4	-0.22893482
218	0xbd0ccaf4	-0.03437324
219	0x3e278f52	0.16363266
220	0x3dabc6d4	0.08387533
221	0xbe357570	-0.1772058
222	0x3e2484dd	0.16066308
223	0xbe2c3399	-0.16816558
224	0x3e4502a7	0.19239293
225	0x3e747773	0.23873691
226	0x3bfd7d60	0.007735893
227	0xbdefc5fa	-0.11707683
228	0x3e5a9335	0.21345218
229	0xbe5d9f42	-0.21642783
230	0x3bf80d20	0.007569924
231	0xbe65a893	-0.22427587
232	0xbcca1ce3	-0.024671977
233	0x3d96bb9a	0.07360001
234	0x3e752b12	0.23942211
235	0xbe29469c	-0.16530842
236	0xbe6060cb	-0.21911924
237	0x3e4f8991	0.20267321
238	0x3e222047	0.15832625
239	0x3e01ac65	0.1266342
240	0xbe0d03d0	-0.13770986
241	0x3da2d026	0.079498574
242	0xbe199834	-0.14999467
243	0x3d99a525	0.07502202
244	0x3e404103	0.187748
245	0xbd442d73	-0.047894906
246	0x3e42ee6d	0.19036265
247	0x3e43937d	0.19099231
248	0xbe4867c4	-0.19570833
249	0xbe229d5f	-0.15880345
250	0xbe7403bc	-0.2382955
251	0xbd6b0841	-0.05738092
252	0x3d9c40e8	0.076295674
253	0xbe085af7	-0.1331595
254	0x3e3f137f	0.18659781
255	0x3d419b4d	0.047267247

sequential_1/dense_5/MatMul f4 [1, 50]
0	0x3e18e90a	0.14932647
1	0xbe706d49	-0.23479189
2	0x3e96c754	0.2944895
3	0x3be104b3	0.0068670153
4	0xbe858cde	-0.26084036
5	0x3e9345e7	0.2876427
6	0x3d8dd730	0.069258094
7	0x3c868c56	0.01642434
8	0x3e3eca62	0.1863189
9	0x3e7c67ac	0.24648923
10	0xbc957321	-0.018243374
11	0xbd13e4e9	-0.036106978
12	0x3e3272f9	0.17426671
13	0x3d736ce8	0.059430033
14	0x3e64b04f	0.22332881
15	0x3e0cd0ae	0.1375148
16	0x3c717b63	0.01473889
17	0x3e8fce36	0.28087014
18	0x3e35b6c4	0.17745501
19	0x3e720538	0.23634803
20	0x3e5ab4d8	0.21358049
21	0xbe0d365d	-0.13790269
22	0xbe08bfb8	-0.13354385
23	0x3b88bed8	0.004173141
24	0xbdefaf50	-0.1170336
25	0xbe99a6fe	-0.30010217
26	0xbe45bdb6	-0.1931065
27	0x3e9bb106	0.30408496
28	0xbdd15c2c	-0.102226585
29	0xbe440acb	-0.19144742
30	0xbe15e64c	-0.14638633
31	0xbeace2c8	-0.3376677
32	0xbdf9a822	-0.12190272
33	0xbe806a44	-0.25081074
34	0xbe20659f	-0.15663765
35	0x3d98f21f	0.07468056
36	0xbe836e09	-0.25669888
37	0xbdb60945	-0.08888487
38	0xbe2f5d27	-0.17125379
39	0x3dc6a31d	0.0969908
40	0x3e1ba3c6	0.15199193
41	0x3e1fa51d	0.1559033
42	0xbdf14113	-0.1177999
43	0x3d6ec893	0.05829675
44	0xbe09853e	-0.13429734
45	0x3d8ea80c	0.06965646
46	0x3d2e6c6b	0.042583864
47	0xbe1b086d	-0.15139933
48	0xbc705d29	-0.014670649
49	0x3e3d32fa	0.18476477
