HTML/models/G1 - Plain Concrete Surfaces (Surface Prep - Primer - Finish Coat)/model.tflite (tflite, 13148 bytes, 5 tensors)

sequential/dense/BiasAdd/ReadVariableOp f4 [50]
00000000: 9d6a edbb 8654 7cbc 0000 0000 0000 0000
00000010: c9b5 4f3d 0000 0000 0000 0000 0000 0000
00000020: 0000 0000 0000 0000 f296 d8bc 0000 0000
00000030: 0000 0000 a7ed a53b 0000 0000 0000 0000
00000040: 0000 0000 396b 8cbd 3f74 a6bc e8a4 0d3c
00000050: 0000 0000 8a4b 09be 31d9 eabc 0000 0000
00000060: c5b4 6bbc 0000 0000 56f9 10bd 0000 0000
00000070: 8588 ef3c fe86 e9bc 0000 0000 0000 0000
00000080: 0000 0000 62f4 043d 0000 0000 532e 87bc
00000090: 4cee d6bc 0000 0000 0000 0000 d380 223d
000000a0: 0000 0000 0000 0000 0000 0000 0000 0000
000000b0: 1500 f3bc 0000 0000 0000 0000 81c5 63bc
000000c0: 0000 0000 0000 0000
-0.0072453753 -0.015401011 0.0 0.0 0.050710473 0.0 0.0 0.0
0.0 0.0 -0.026439164 0.0 0.0 0.0050637308 0.0 0.0
0.0 -0.068563886 -0.020319102 0.008645274 0.0 -0.13407722 -0.028668018 0.0
-0.0143863605 0.0 -0.035394035 0.0 0.029239902 -0.028506752 0.0 0.0
0.0 0.032459624 0.0 -0.016501581 -0.026236676 0.0 0.0 0.039673638
0.0 0.0 0.0 0.0 -0.029663125 0.0 0.0 -0.013902069
0.0 0.0

sequential/dense_1/BiasAdd/ReadVariableOp f4 [50]
00000000: 1254 953d 54cb 85bc 979d eebc ddae f7bc
00000010: 0819 cf3c 0c5f d5bc d5de 343d f8dc 0f3c
00000020: c8e3 853e 0c3b e83c f67c 1f3d f364 24bd
00000030: 8547 8dbc c14a db3b bacb f7bb 8212 f9bc
00000040: 706e 553d 1b68 3a3d 4794 2dbe 1b94 e8bc
00000050: 94e0 953c 6fa8 af3c 2187 eebc a124 d4bc
00000060: b8c7 b8bb 4023 dbbb 6f52 b83e 8423 74bd
00000070: 032c 39bb 13c5 d93d cbeb 04be 8729 a5bc
00000080: 56e9 3d3e 667d 9a3a e49a 00bb 6725 813c
00000090: 80b2 8c3c 04f1 94be 4311 2b3e 4541 cc3c
000000a0: 5775 f23c e420 cc3d 494d 38bd 819d 723e
000000b0: 2a55 92bc c6d3 ea3c 2371 80bc 27f5 d1bd
000000c0: d349 f5bc 311d 7bbd
0.07291426 -0.016332306 -0.029127879 -0.030234748 0.02528049 -0.026046298 0.04415782 0.00878071
0.26150346 0.028348468 0.03893753 -0.040135335 -0.017246017 0.006692261 -0.007562128 -0.030404333
0.052107275 0.04550944 -0.16951095 -0.028390935 0.018295564 0.02144262 -0.029117169 -0.025896372
-0.0056390427 -0.0066875517 0.36000392 -0.059604183 -0.0028254993 0.10633292 -0.12980573 -0.020161403
0.18546042 0.0011786639 -0.0019623572 0.015764905 0.01717496 -0.2909013 0.16705804 0.024933467
0.029596968 0.09967211 -0.04499558 0.23692895 -0.017862875 0.028665435 -0.015678948 -0.10251837
-0.029942429 -0.061307136

sequential/dense/MatMul f4 [50, 3]
00000000: 71a3 84be 194f 1f3e eed5 1b3e 548c b7be
00000010: 3c7d 7b3e 7cbf 1b3d c4cd c5bd b9f0 8dbe
00000020: 1c4b f53d 90ac 873d 5e23 eebd c0f8 a5bc
00000030: b335 ae3c d2bc 313d 4561 de3d 3332 9dbe
00000040: 5283 88be 0244 2f3e 5742 9c3e da91 87be
00000050: 1f15 a9be 86cb 5d3e 83b3 1cbe a816 383d
00000060: 925b 89be e3bd 0abe 807d babb f4b5 893d
00000070: 02c7 20be 9bad 16be 3642 023e 7551 af3c
00000080: 9931 443e 4e81 7bbe ee83 c7bd 05ba 11be
00000090: c468 d5bd 606b efbd d81e f83d 3d43 523e
000000a0: 8f60 983e 3d74 a83c 0015 b13d d9c3 8abe
000000b0: 4e70 d0bd 68ed 75bd 84df 01be d8c3 e63d
000000c0: b6ad 3abe 48b9 85be f2ff 293e 2d84 093e
000000d0: 1f42 993e 03a6 f23d 9d6d 773c 2645 4e3e
000000e0: f846 743d fe1b abbe 4fc4 993e e0fb d83c
000000f0: bf1c 2bbe a8dc 9ebe 9362 983e 4d48 45be
00000100: c964 d2bd 7cc9 873e 93cb 81be 186e 07bd
00000110: 85da c03d f2fc 733e b425 78be 90f7 503d
00000120: ddbb 39be 06b3 5abe cbdc 823e 7ca5 8bbd
00000130: 99fe 1bbe 981a 57bd 8777 6bbe 220f fb3d
00000140: f9de 3ebe e8fb 5dbd 578e 9abe 5cf7 17be
00000150: aa52 1fbe 685f 113e 0614 55bd 17e3 2bbd
00000160: a902 33bd 7015 413e 2087 0f3c 826e 28be
00000170: f8c6 37be 5e43 063e c693 95be d0cb e33d
00000180: 3b0c 863e bf43 4abe 44bc cb3d 3072 003e
00000190: 245e 573e 11ea 8abe 9c10 a7bd b2e0 18be
000001a0: 6499 85be ff03 a93d 2e34 613e 5a29 3dbc
000001b0: 4bd2 a63c 1c9d f03a 5f2f 903e 511f 8b3e
000001c0: 12e2 7dbe 322a 703e 9ae1 7f3e 6b42 9cbe
000001d0: c69f 44be 877c 8f3e bf35 fd3c 9350 893e
000001e0: f1ab 33be 0cf5 b8bd 840b 64be be96 493e
000001f0: b670 3ebe d162 8ebe 9d3f 863e 4376 8fbe
00000200: c808 86bd 27a4 a0be 807e e5bb d0ff 4bbd
00000210: 16d8 283c 901f 063d 7196 8e3e d66a 5f3e
00000220: f5ae a1be 340e b23d 22b6 62be c258 8dbe
00000230: 008a de3a 0f06 e93d b0bc 63bc 6c70 ae3e
00000240: c995 94be e420 f6bd 40f6 463d 2233 babd
00000250: 6d21 6abe ecd7 81bd
-0.25905946 0.15557517 0.15218326 -0.3584925 0.24559492 0.03802441 -0.09658387 -0.2772272
0.119772166 0.066247106 -0.116278395 -0.020260215 0.02126584 0.043392964 0.108583964 -0.3070236
-0.2666269 0.17115787 0.30519363 -0.26478463 -0.33023927 0.2165967 -0.15302853 0.04494348
-0.26827675 -0.13548999 -0.0056912303 0.06724158 -0.15700915 -0.14714663 0.1272057 0.021401146
0.19159545 -0.24561045 -0.097419605 -0.14231117 -0.10420373 -0.11690402 0.12115258 0.20533462
0.29761168 0.02056324 0.086465836 -0.27102545 -0.101776704 -0.06004086 -0.1268292 0.11267823
-0.18230328 -0.2611792 0.16601542 0.13429327 0.2993326 0.118480705 0.015101817 0.20143566
0.059637994 -0.33419794 0.30032584 0.02648729 -0.16710185 -0.31027722 0.29762706 -0.19265862
-0.102731295 0.26520908 -0.25350627 -0.033063978 0.09416679 0.2382696 -0.24233133 0.051017344
-0.1813807 -0.21357355 0.25559077 -0.06818673 -0.1523384 -0.052515596 -0.22994815 0.12258746
-0.18639745 -0.054195315 -0.30186722 -0.14840454 -0.15558878 0.14196551 -0.05202105 -0.041964617
-0.04370371 0.18855834 0.008760244 -0.16448405 -0.17946994 0.13111636 -0.29214305 0.111228585
0.26181206 -0.19752406 0.09948018 0.12543559 0.21032006 -0.27131703 -0.08157465 -0.14929464
-0.2609359 0.08252715 0.21992561 -0.0115455035 0.020363947 0.0018357369 0.2816114 0.2717233
-0.2479327 0.23453596 0.24988404 -0.30519423 -0.19201574 0.28024694 0.030909417 0.26819286
-0.17546059 -0.09031114 -0.22270018 0.1968641 -0.18597683 -0.27809766 0.26220408 -0.28019914
-0.06544644 -0.31375238 -0.0070036054 -0.04980451 0.010305425 0.032744944 0.27849153 0.21818098
-0.31578794 0.08694115 -0.2213979 -0.2760678 0.0016978383 0.11378109 -0.013899967 0.34070146
-0.29020527 -0.12017992 0.048574686 -0.09091784 -0.22864313 -0.06340012

sequential/dense_1/MatMul f4 [50, 50]
00000000: f10d 99bd 8de0 abbd 72f3 a03d d84a 4dbe
00000010: 5158 4fbe fad4 e23d 14d2 05bd cc5f 3dbe
00000020: 33b8 273e 4404 1a3d c337 263c 832f 6c3e
00000030: a0c1 16be b2bd 1b3c eeb3 a8bd 3890 893c
00000040: 398f 3d3e a7c1 e13d 6df7 20be fc5d d93d
00000050: 9323 093e 8b73 debd ce27 043d d0af 41be
00000060: 0d7d a53c fc85 f0bd 2367 7ebe 1dec 483e
00000070: 6a69 9bbd 6606 3b3c 34e1 6d3d a849 0dbe
00000080: 1fa2 263e de23 2bbe 7d6f 673e 6c0f 2a3e
00000090: 2382 34be eccc 713d 2504 193e 28f8 b53d
000000a0: ab95 793e 0aee c13d 8ca4 0f3d 41ab 593e
000000b0: edda 53be 5b10 143e 08ed 16bd 1f99 093e
000000c0: 3823 40bd d790 0d3e 7f45 5b3c 4fb2 733e
000000d0: 71d9 64be 05c0 413e 2491 343b 882b ab3c
000000e0: 1c77 3dbe c48b edbd fbf3 40be 6037 36be
000000f0: a303 153e e4a0 143d ba2c c53d 1681 253e
00000100: 0f00 2dbe 60b6 aabb 4435 1ebd 2b5e 1dbc
00000110: f710 1abe 217b 043e b295 d7bd 69f1 783d
00000120: f7c5 2d3d 9cd6 3b3d 5790 63be bcb2 2d3d
00000130: 57fc 263e 883d 89bc eb9d b0bd 91c3 3fbe
00000140: 8272 83bd 6cb6 5d3d 2a9f 893d 158b 3a3e
00000150: 20ee 9abc 5d86 343e 32b7 633d db80 423e
00000160: ac3a 59be 4242 203e 78b4 aa3c 5d2f 183e
00000170: 5acc 3cbe e54c 4dbe e17c 5d3e 9de3 32be
00000180: f346 383e ee9a 70be 1030 343c 0f6f 6c3e
00000190: ce64 ce3c b018 12be 2c49 23be a31e 78be
000001a0: 6621 80be c7ac 62be 6c72 053d 6ea5 3bbe
000001b0: a336 053e 5206 39be 54d1 943d 9d8c 563e
000001c0: 95ea 053e ecec 9ebd b176 20be 58d7 f03c
000001d0: f538 37be c40b d63d f642 333e 955a 28be
000001e0: 46e0 90bd 994c 523d 3523 1f3e 0869 f43c
000001f0: c39a 823d b007 efbc c615 143e 7841 0ebe
00000200: 072b 83be 5970 71be c299 c43d b8f3 6fbe
00000210: 9e1f 73be 5727 76bd 0a5b 0abe dd00 9bbd
00000220: eda0 7cbd c9c5 013e 1ba4 153e 4c3f 213e
00000230: e55b 043e 6476 51bd 10dc 2ebd 361d f33d
00000240: 18dd ac3d a519 693e 4efb 79be c055 8f3c
00000250: 0054 27bd 5455 2cbd fc08 debc 31b7 e3bd
00000260: 109b 1d3c 3a00 2dbe 4c61 68be b574 3c3e
00000270: a22e 1bbe 0d23 4c3e 7a17 8d3d 8180 333e
00000280: 9ac0 41be 7130 1bbe de45 ef3d b527 56be
00000290: b0b4 293c 93fb 273e 7edf a4bd ba8e 113e
000002a0: a3cf e5bc e515 443e c86a 98bd 6ab4 38be
000002b0: 3bd8 6d3e 1250 08be c340 8c3d cfeb 503e
000002c0: dc40 02be 5fa1 76be 6e45 12be 5c85 49be
000002d0: b9aa 4cbe 1129 3d3e 992d 523e d005 2bbe
000002e0: 7769 703e 2f89 a13d 6753 44be 42d1 b43d
000002f0: dcc5 14be 6aae 29be 133b 0a3e a9e1 433e
00000300: a4f6 c0bd caf5 98bd 20a7 e6bd ba95 cc3d
00000310: 6ea5 e53d 348a 213e 0018 2bb9 68d1 ccbd
00000320: a700 553e afc6 7b3d 9af0 bdbd c992 5cbe
00000330: f7e0 64be 65f8 2ebe 38d1 a3bc a8e6 e33c
00000340: bf47 443e 663a 6ebe ee18 383e b962 31be
00000350: 1818 a0bd 5569 833d 8318 3c3e 6efc 89bd
00000360: bd2b 263e 5a38 0ebe 624e fbbd 0aa7 2abe
00000370: 3a8a e73d 8a99 85bd ec50 2e3e 985b 55be
00000380: 6abf 0fbe 7c52 20be 7030 9ebc 6ca3 553d
00000390: 378b a3bd a785 bc3d 8c7c eebd 7c66 65be
000003a0: 819a 49be a924 1c3e 0a5d 4bbe 3c24 82bb
000003b0: 5f63 073d d32f 5b3e 8880 36bd 2ff6 7a3e
000003c0: 7445 313d 5a96 cebd 6b9e 2d3e a903 0c3e
000003d0: 36ad ba3d 50b1 3bbe 7a3c 08be 932b ee3d
000003e0: 68be 9bbd a354 303e d76b 26be 3375 87be
000003f0: b265 8bbd f04b 143c 412c 50bd 00ef 77ba
-0.07473362 -0.08392439 0.078589335 -0.20048082 -0.20248534 0.11075778 -0.03267105 -0.18493575
0.1637886 0.037601724 0.010145131 0.23065 -0.147223 0.009505676 -0.08237444 0.016792402
0.18511666 0.110232644 -0.15719385 0.10613629 0.13392477 -0.10861882 0.032264523 -0.18914723
0.02020123 -0.117443055 -0.24844031 0.1962132 -0.075884655 0.0114151 0.0580761 -0.13797629
0.16272782 -0.16712901 0.22601123 0.16607445 -0.17627768 0.05903332 0.14942987 0.08885223
0.243735 0.094692305 0.035069034 0.21256734 -0.20688982 0.14459364 -0.036847144 0.13437317
-0.046908587 0.13824783 0.013383268 0.23798488 -0.22348572 0.18920906 0.002755233 0.02089478
-0.18502468 -0.11598924 -0.18843071 -0.17794561 0.14552169 0.03628625 0.096276715 0.16162524
-0.16894554 -0.005209729 -0.038625017 -0.009604971 -0.15045534 0.12937595 -0.10526599 0.0607771
0.042425122 0.045858964 -0.2222303 0.042406783 0.16307198 -0.016752973 -0.086238705 -0.18726946
-0.06418325 0.05412905 0.06719811 0.18217118 -0.018912375 0.1762938 0.05559463 0.18994467
-0.21213788 0.15650275 0.020838007 0.14861818 -0.18437329 -0.20048864 0.21629669 -0.1746964
0.17995815 -0.23496601 0.010997787 0.2308924 0.025194552 -0.1426723 -0.15945882 -0.24230437
-0.2502548 -0.22136222 0.032579824 -0.18324825 0.13009124 -0.18068817 0.07266489 0.20952077
0.13077767 -0.07760033 -0.15670277 0.029399559 -0.17892821 0.10451463 0.17506012 -0.16440804
-0.07074027 0.05134258 0.15540774 0.029835239 0.06377175 -0.02917847 0.14461431 -0.13892162
-0.25618765 -0.23578013 0.095996395 -0.23432815 -0.2374253 -0.06009611 -0.13511291 -0.07568524
-0.06167691 0.12673105 0.14613383 0.15746802 0.1292568 -0.051138297 -0.042690337 0.11870806
0.08440608 0.22763689 -0.24412271 0.017496943 -0.040851593 -0.042073563 -0.027103893 -0.11118925
0.009619489 -0.16894618 -0.22693366 0.18403895 -0.15154508 0.19935246 0.068892434 0.17529489
-0.18921128 -0.15155198 0.11683248 -0.20913585 0.010358021 0.16404562 -0.0805044 0.14214602
-0.02805311 0.19148977 -0.07442242 -0.18037573 0.23227017 -0.13311794 0.0684829 0.20402454
-0.12720054 -0.24084996 -0.14284298 -0.19679779 -0.19987 0.18472697 0.20525207 -0.16701436
0.23477732 0.07887494 -0.1917244 0.08828975 -0.14528602 -0.1657044 0.13499098 0.19129051
-0.09422043 -0.074687555 -0.11262345 0.099894956 0.11213194 0.15775377 -0.00016316772 -0.100008786
0.2080103 0.061468776 -0.09274407 -0.21540369 -0.22351442 -0.17086942 -0.019997224 0.027819946
0.19167994 -0.23264465 0.1797826 -0.17322816 -0.078170955 0.06416575 0.18368725 -0.067376
0.16227622 -0.13888684 -0.1227081 -0.16665283 0.113056615 -0.06523426 0.17023057 -0.20835721
-0.14037862 -0.15656465 -0.019310206 0.052157804 -0.079855375 0.0920518 -0.11644849 -0.22402376
-0.19687845 0.1524836 -0.1985971 -0.0039716046 0.033053752 0.21404962 -0.04455617 0.24507974
0.043279126 -0.10087271 0.16954963 0.13673271 0.091150686 -0.18329358 -0.1330432 0.11629405
-0.076046765 0.17219786 -0.16252075 -0.26456603 -0.06806506 0.009051308 -0.050823454 -0.0009457916

sequential/dense_2/MatMul f4 [1, 50]
00000000: 8650 593c 75b2 1b3e df1c 16be 80ed 3abe
00000010: 40cd 1b3e 04e3 32be c3ba 18be cb37 113d
00000020: 0d26 91bc b85c cb3d c1df a33e 6d41 0fbe
00000030: ef18 dbbd 8f7d e53d f5b5 8d3e ddd5 89be
00000040: e247 9f3e f682 aa3e 5b62 a2be 8766 8fbe
00000050: 625e 6ebe 12e2 963e ab18 a6be 4d5c b4bd
00000060: 6476 abbe 623a 523e 5676 f33d 5ea9 373c
00000070: 35ad 9d3e 1199 1fbd 93fd 5a3d df2a 98be
00000080: 3960 7a3d be99 40be 93c7 a0bd 0df1 1b3e
00000090: 8a1c 823e 4210 a23e 291a 2e3e 0d2a 8bbe
000000a0: d09d 213e ae3e 3e3e a803 8cbe 87d9 b23c
000000b0: 5428 7ebe 307f 9b3e 8d7e 80be f603 6bbe
000000c0: 8234 02bc d030 54be
0.013263827 0.15204795 -0.14659451 -0.18254662 0.15215015 -0.17469412 -0.14914994 0.0354536
-0.01771834 0.09929794 0.32006648 -0.13989802 -0.10698115 0.11205589 0.27677885 -0.26920977
0.3110953 0.3330304 -0.31715664 -0.2800791 -0.23278192 0.29469353 -0.32440695 -0.088066675
-0.33488762 0.20530084 0.11887805 0.011209814 0.3079621 -0.038964335 0.053464483 -0.29720208
0.06112692 -0.18808648 -0.07850566 0.15228672 0.254124 0.3165303 0.17002167 -0.2718052
0.15782857 0.18578598 -0.2734654 0.02183224 -0.24820071 0.30370474 -0.2509655 -0.2295073
-0.007947089 -0.20721745
